pitch_tracking/pitch_salience.pt (torch, 17717 bytes, 13 tensors)

conv1.weight f4 [16, 5, 3, 3]
0	0x3ea1bb27	0.31588098
1	0x3efda735	0.4954163
2	0x3e6f7e4e	0.23388025
3	0x3da93631	0.08262289
4	0x3eaa8725	0.33306232
5	0x3ea976f7	0.33098575
6	0x3ded085a	0.115738586
7	0x3ea685b4	0.32523882
8	0x3e90a179	0.28248194
9	0xbea1b567	-0.31583712
10	0xbe19f2ee	-0.15034077
11	0x3c627d71	0.013823853
12	0xbe8b7c50	-0.2724328
13	0xbcfe865f	-0.031069933
14	0x3e5c94ec	0.21541184
15	0xbec974a1	-0.39346793
16	0xbd8bd0d8	-0.06826943
17	0x3ded1cc5	0.11577753
18	0xbe9b619a	-0.30347902
19	0x3d9e3c0a	0.07726295
20	0xbd864e76	-0.06557934
21	0xbda52639	-0.08063931
22	0xbd9a4a85	-0.07533745
23	0xbd0ddba9	-0.034633312
24	0xbe077206	-0.1322709
25	0xbe490bbc	-0.19633383
26	0x3d766e30	0.060163677
27	0xbe05e30d	-0.13074894
28	0x3d89d86e	0.06730734
29	0x3da2b860	0.07945323
30	0x3db938bf	0.090440266
31	0x3d5a4f3e	0.053298227
32	0xbd446b7e	-0.047954075
33	0x3d8ef98f	0.06981193
34	0xbdfe2397	-0.12409132
35	0x3e4175a5	0.18892534
36	0x3d1b3721	0.037894372
37	0xbd858c01	-0.06520844
38	0x3dde0112	0.10840048
39	0xbe3749d4	-0.17899257
40	0xbc90af3b	-0.017661681
41	0x3cc26060	0.023727596
42	0xbd74bab7	-0.059748378
43	0xbc875910	-0.01652196
44	0x3dbc05a7	0.091807656
45	0xbe14652a	-0.14491716
46	0x3d4f4f2d	0.050612617
47	0xbe17aebe	-0.14812753
48	0xbc08565c	-0.008321371
49	0x3b2734b8	0.00255136
50	0x3d11f866	0.03563728
51	0xbe1df28a	-0.15424553
52	0xbd9595ac	-0.07303938
53	0x3d818bee	0.063255176
54	0xbe3606cd	-0.17776032
55	0x3e377c21	0.17918445
56	0x3e808f4b	0.25109324
57	0x3bebf3f0	0.0072007105
58	0x3d82c4f2	0.063852206
59	0x3e7ca05a	0.24670544
60	0x3cffa023	0.031204289
61	0x3dcd99ea	0.100391224
62	0x3d56e6b2	0.052466102
63	0xbe9c750d	-0.30558053
64	0xbdfde7f3	-0.123977564
65	0x3e98b4df	0.29825494
66	0xbe6b630d	-0.22987004
67	0x3d52ef56	0.05149778
68	0x3ebbf139	0.36707476
69	0xbdaf8fb4	-0.08572331
70	0xbe1c2d47	-0.15251647
71	0x3df3be8c	0.11901578
72	0xbe49133c	-0.19636244
73	0x3ddec879	0.10878081
74	0x3c7eca6c	0.015551191
75	0xbe96b493	-0.29434642
76	0x3e2251de	0.15851542
77	0x3ed8765a	0.42277795
78	0x3dd3c0ef	0.103395335
79	0xbe0cac29	-0.13737549
80	0xbce88f7b	-0.02838873
81	0xbd934c2c	-0.07192263
82	0x3d714bb7	0.058910098
83	0x3bca4990	0.00617332
84	0xbe9295fb	-0.2863005
85	0x3e0ebbb3	0.13938789
86	0x3ea7c65f	0.32768533
87	0x3d45ef96	0.04832419
88	0xbdbcf80b	-0.09226998
89	0xbe494d45	-0.19658382
90	0xbe6bf766	-0.23043594
91	0xbe828eda	-0.25499612
92	0x3e03fab9	0.12888612
93	0xbeb4c806	-0.35308856
94	0xbe582e84	-0.21111494
95	0x3e5738ce	0.21017763
96	0xbd652cc5	-0.0559509
97	0x3e375ba6	0.17906055
98	0x3f009d2a	0.50239813
99	0xbe5835cb	-0.2111427
100	0xbaf9fb29	-0.0019072044
101	0x3caf2d08	0.021383777
102	0xbe2d6eac	-0.16936749
103	0x3d8501c6	0.06494479
104	0xbcf86d63	-0.030325597
105	0xbe5f0b0c	-0.21781558
106	0xbdfd56f5	-0.12370101
107	0x3d5249e5	0.051340003
108	0xbc5bde22	-0.01341966
109	0x3bae4168	0.0053178556
110	0x3e070164	0.13184124
111	0xbe4246e6	-0.18972358
112	0xbe03129b	-0.12800066
113	0x3e84782f	0.25872943
114	0xbe7f4f6c	-0.24932641
115	0xbcd4c9c9	-0.025975125
116	0x3e17159c	0.14754337
117	0xbe0cd0ac	-0.13751477
118	0x3cd3a836	0.025837045
119	0xbd40fb9d	-0.047114957
120	0xbe34267d	-0.17592807
121	0xbe5c2736	-0.21499333
122	0x3d9b2fae	0.075774536
123	0x3d94afb1	0.07260073
124	0xbcdd6986	-0.027027857
125	0xbdc33f3c	-0.095335454
126	0x3c8a1b45	0.016858706
127	0xbc31f1c3	-0.010860863
128	0xbe5815fd	-0.21102138
129	0xbdd0f599	-0.10203094
130	0xbe0a21d4	-0.13489467
131	0xbe13ebff	-0.14445494
132	0xbd2b4189	-0.041810546
133	0xbd200265	-0.039064784
134	0xbe540333	-0.20704345
135	0xbcf45b51	-0.0298287
136	0x3dd5832b	0.10425409
137	0xbd5405c0	-0.051763296
138	0x3b1f01e2	0.0024262597
139	0xbd3f22cb	-0.04666404
140	0x3d62fd27	0.055417206
141	0xbca6c6a4	-0.020358391
142	0xbd8f8e9e	-0.07009624
143	0xbc17bf08	-0.009261854
144	0xbe641b8f	-0.22276138
145	0xbd519677	-0.051168885
146	0x3d7f523e	0.06233429
147	0x3d034b19	0.03205404
148	0x3d8ba15c	0.06817886
149	0x3e559e22	0.20861104
150	0xbdce652d	-0.100778915
151	0xbd8383c4	-0.06421617
152	0x3da54198	0.08069152
153	0x3d1dd885	0.038536567
154	0x3d65e48f	0.056126174
155	0xbe3678aa	-0.17819467
156	0x3e3dce06	0.18535623
157	0xbd38344b	-0.044971745
158	0xbdae542f	-0.085121505
159	0x3e03d42b	0.12873904
160	0xbd8063b5	-0.062690176
161	0xbe6328a2	-0.22183469
162	0xbdd47375	-0.10373584
163	0xbe66cc06	-0.22538766
164	0x3ca8a1bb	0.020584932
165	0xbe2b6c93	-0.16740637
166	0xbe67f866	-0.2265335
167	0xbd32df33	-0.04366989
168	0xbeb795a1	-0.35856345
169	0xbec675eb	-0.3876184
170	0xbe23925e	-0.15973803
171	0x3e2552e3	0.161449
172	0x3d738a78	0.059458226
173	0x3e2efe4a	0.17089191
174	0x3e049151	0.12946059
175	0x3eac4871	0.33649018
176	0x3ea31b79	0.31856897
177	0x3e0fce17	0.14043461
178	0x3ea6a687	0.32548925
179	0x3e3cb45a	0.18428174
180	0x3daf79da	0.08568163
181	0xbd9c60e9	-0.07635672
182	0xbe96cd7f	-0.29453656
183	0x3e9a69db	0.30158886
184	0x3d293bdb	0.04131685
185	0xbe980689	-0.29692486
186	0x3e5ba314	0.21448928
187	0x3e7cc265	0.2468353
188	0xbe26bbe8	-0.16282618
189	0xbd0dcd0c	-0.034619376
190	0xbd910986	-0.070818946
191	0xbccc71c8	-0.024956599
192	0xbc1b1ad2	-0.009466844
193	0x3dc21640	0.094769
194	0x3dd17d5b	0.10228988
195	0xbd8c9f21	-0.06866289
196	0x3dcf513c	0.10122916
197	0x3e36a7e2	0.1783748
198	0x3d39fb11	0.04540545
199	0xbedf0965	-0.43561855
200	0x3dadf533	0.08494034
201	0xbd02b038	-0.031906337
202	0xbf282d14	-0.65693784
203	0xbd9e50ad	-0.077302314
204	0x3e073812	0.13204983
205	0xbf0c7006	-0.54858434
206	0xbdb3fb66	-0.08788185
207	0x3d17fe8c	0.03710799
208	0xbcddd5d5	-0.027079502
209	0xbc374409	-0.011185654
210	0xbe81a33e	-0.25319856
211	0x3c4f08c8	0.012636371
212	0xbe650c02	-0.22367862
213	0xbe1ded38	-0.15422523
214	0xbe2aba5c	-0.16672653
215	0xbe5042a7	-0.20337926
216	0x3e368c2b	0.17826907
217	0x3df04743	0.11732342
218	0x3bf53be0	0.0074839443
219	0x3de914a0	0.11380887
220	0x3d88d578	0.06681341
221	0xbd5a155d	-0.05324303
222	0x3ea3edd2	0.3201738
223	0x3ded43f7	0.11585229
224	0xbd499a00	-0.04921913
225	0xbdef0415	-0.116707005
226	0x3e0ef5d8	0.1396097
227	0xbcd4f405	-0.025995264
228	0x3d69cf80	0.057082653
229	0xbe117727	-0.1420561
230	0x3d4f2877	0.0505757
231	0x3cf21ec7	0.029555691
232	0x3c5fff18	0.013671659
233	0x3e335063	0.17511134
234	0xbe1a8c03	-0.15092473
235	0x3dc0f805	0.09422306
236	0x3dce542a	0.10074647
237	0xbea92510	-0.3303609
238	0xbe3af470	-0.18257308
239	0x3e612379	0.21986188
240	0xbe49e1db	-0.19715063
241	0xbe6564ce	-0.22401735
242	0x3e8218cb	0.2540954
243	0x3d4d7aa7	0.0501658
244	0xbd6f9ec8	-0.058501035
245	0xbcbf214d	-0.023331309
246	0x3e4f0793	0.20217733
247	0xbdc6ce6d	-0.09707341
248	0x3d9f0065	0.07763747
249	0x3dcb8481	0.099373825
250	0x3d7cb799	0.06169853
251	0x3cd54f9f	0.026038943
252	0xbd205c71	-0.03915066
253	0xbba0822a	-0.0048983293
254	0xbe47ef38	-0.19524848
255	0x3d506e4c	0.050886437

conv1.bias f4 [16]
0	0x3e109c32	0.14122084
1	0x3dac8a6a	0.08424838
2	0x3e029710	0.12752938
3	0xbda2a021	-0.079406984
4	0xbe6c7c2e	-0.23094246
5	0xbe349b6f	-0.17637418
6	0x3d4be29b	0.049776655
7	0xbdc49043	-0.09597828
8	0xbe71b0dc	-0.23602623
9	0xbe0de754	-0.13857776
10	0xbd2815e6	-0.04103651
11	0xbdc45756	-0.095869705
12	0x3bf52d8b	0.007482236
13	0xbd41cae9	-0.04731265
14	0x3e31c24e	0.17359278
15	0x3e41d1e2	0.1892772

bn1.weight f4 [16]
0	0x3f70b133	0.94020385
1	0x3f7648bf	0.9620475
2	0x3f48f1e0	0.7849407
3	0x3f916412	1.1358664
4	0x3f3cfc59	0.7382255
5	0x3f952bd7	1.1654004
6	0x3f5f5739	0.87242466
7	0x3f85d5ff	1.0455931
8	0x3f4bb141	0.79567343
9	0x3f62ed02	0.88642895
10	0x3f46119d	0.77370626
11	0x3f9898ed	1.1921669
12	0x3f531979	0.82460743
13	0x3f735419	0.950502
14	0x3f678498	0.90436697
15	0x3f86cd23	1.0531353

bn1.bias f4 [16]
0	0x3e7adda1	0.24498607
1	0xbf60e1fa	-0.8784481
2	0x3deff302	0.11716272
3	0xbe056b42	-0.13029197
4	0x3e84db2a	0.2594846
5	0xbe142815	-0.14468415
6	0xbf667969	-0.9002901
7	0xbe0e1a01	-0.13877107
8	0xbede5801	-0.43426517
9	0xbe1d668a	-0.15371147
10	0x3f00c727	0.5030388
11	0xbe1288b9	-0.14309968
12	0x3eebad8f	0.46030852
13	0xbe3b7622	-0.18306783
14	0xbf6f75b1	-0.9353896
15	0xbe9cefed	-0.306518

bn1.running_mean f4 [16]
0	0x3eabb692	0.33537728
1	0x3e5cef5d	0.21575685
2	0xbebeed50	-0.3729043
3	0xbe1dbf6d	-0.15405054
4	0xbf13623e	-0.5757178
5	0xbc0dcf19	-0.008655333
6	0x3e8d31a2	0.2757693
7	0xbcb08a78	-0.021550402
8	0x3efc41eb	0.4926904
9	0xbe437dad	-0.1909091
10	0xbf3a8544	-0.728596
11	0xbcf12014	-0.029434241
12	0xbe0f5adb	-0.13999502
13	0xbca5c228	-0.020234182
14	0x3e855bbb	0.26046547
15	0xbf713988	-0.9422841

bn1.running_var f4 [16]
0	0x3e51d420	0.20491076
1	0x3ce1c14e	0.027557995
2	0x3e145d4e	0.14488718
3	0x3da987be	0.08277844
4	0x3e18d40c	0.1492464
5	0x3d9c5070	0.0763253
6	0x3d3fcd48	0.04682663
7	0x3d9d1163	0.07669332
8	0x3e9f0fb0	0.31066656
9	0x3db65fd9	0.08905
10	0x3ea8e0d5	0.32984033
11	0x3ce298ca	0.027660746
12	0x3d1a578a	0.03768114
13	0x3dcb3055	0.09921328
14	0x3c9bc194	0.019013204
15	0x3fb68130	1.4258175

conv2.weight f4 [16, 16, 3, 3]
0	0xbc6143e6	-0.013749098
1	0xbd6da393	-0.058017325
2	0x3df0a3e5	0.117500104
3	0xbcf79e48	-0.030226842
4	0xbe0c1119	-0.13678397
5	0xbd036c3f	-0.032085653
6	0xbe2972c6	-0.16547689
7	0xbdf2dcdc	-0.11858532
8	0xbd80e3ac	-0.06293425
9	0xbea2761e	-0.3173074
10	0x3e406da7	0.18791829
11	0xbdb9698b	-0.09053334
12	0xbe8a66dd	-0.27031603
13	0x3e320152	0.17383316
14	0xbbc244c5	-0.005928608
15	0xbe17566f	-0.14779066
16	0x3dc7dc29	0.09758789
17	0xbe4eb32d	-0.20185538
18	0xbe1b9bbd	-0.15196128
19	0x3e1a1cc8	0.15050042
20	0xbd758f78	-0.059951276
21	0xbe12081c	-0.14260906
22	0x3e4e6ca5	0.20158632
23	0x3d683feb	0.056701582
24	0xbd378329	-0.04480282
25	0x3e878f0b	0.2647632
26	0xbd0a49d7	-0.033761825
27	0x3e3cddce	0.18443987
28	0x3da02dc7	0.07821231
29	0x3e1aa362	0.15101388
30	0xbca23a64	-0.019803233
31	0x3afc1f51	0.0019235407
32	0xbe05da77	-0.13071619
33	0x3b84f619	0.0040576574
34	0x3d08187d	0.03322648
35	0x3c8a907c	0.016914599
36	0xbdf72221	-0.120670564
37	0xbae03f88	-0.0017108778
38	0xbe064807	-0.13113414
39	0xbdcaa824	-0.098953515
40	0xbd08f66d	-0.033438135
41	0xbe42997c	-0.19003862
42	0xbdbfb208	-0.09360129
43	0xbd2e5187	-0.04255822
44	0xbe1fd62c	-0.15609044
45	0x3ea4df0e	0.32201427
46	0x3dee1f76	0.116270944
47	0xbd706a5e	-0.05869519
48	0x3e91eefa	0.28502637
49	0x3dbfc11a	0.09363003
50	0xbdca5e0f	-0.098812215
51	0x3daf11f5	0.08548347
52	0xbdf83cd5	-0.12120978
53	0xbe189b28	-0.14902937
54	0xbe212505	-0.15736778
55	0xbea9a0bf	-0.33130452
56	0xbe69bdb8	-0.22826278
57	0xbd6ce570	-0.057835996
58	0xbea480dc	-0.32129562
59	0xbe647b12	-0.22312573
60	0xbd0d64c0	-0.03451991
61	0xbeb06d30	-0.34458303
62	0xbef93310	-0.4867177
63	0xbd9f6cf1	-0.07784451
64	0x3ce94c4e	0.028478768
65	0x3d3d2fac	0.04618804
66	0x3daeb11c	0.08529875
67	0xbd877564	-0.06614187
68	0x3e0a9520	0.13533449
69	0xbe2f7ccb	-0.17137448
70	0xbe5c59cb	-0.21518628
71	0xbc10f0c4	-0.0088464655
72	0xbe9a63e9	-0.3015435
73	0xbd8d0c9d	-0.068871714
74	0xbe121c88	-0.14268696
75	0xbe57ec8a	-0.21086326
76	0xbdcf04ec	-0.10108361
77	0xbdb3e681	-0.087841995
78	0xbe854e0f	-0.26036116
79	0xbdfe767f	-0.12424945
80	0xbe0382b9	-0.12842835
81	0xbe4daeea	-0.20086256
82	0x3dc1f297	0.094700985
83	0xbd703d12	-0.05865199
84	0xbe282e98	-0.16424024
85	0x3daa9853	0.08329835
86	0xbc8ae686	-0.016955625
87	0xbd1ae654	-0.037817314
88	0x3d55467d	0.052069176
89	0xbcddb61b	-0.027064374
90	0xbc9def33	-0.019279098
91	0x3daa78fd	0.08323858
92	0x3d29e01c	0.041473493
93	0xbdea277c	-0.11433312
94	0x3e744398	0.2385391
95	0x3dd9de9c	0.106381625
96	0xbd3cc29e	-0.04608404
97	0x3e8bf194	0.27332747
98	0x3d3bec8e	0.045879893
99	0x3ca80e7e	0.020514723
100	0x3d838d7e	0.06423472
101	0xbdb946a6	-0.09046678
102	0xbd1a7888	-0.037712604
103	0xbd121672	-0.035665937
104	0xbbe700e4	-0.0070496667
105	0xbb215c45	-0.0024621647
106	0xbd22436a	-0.039615072
107	0xbd08b95c	-0.033379897
108	0xbea02130	-0.3127532
109	0x3dd8e057	0.105896644
110	0xbd88f1df	-0.06686758
111	0xbea27468	-0.31729436
112	0x3e3b89bf	0.18314265
113	0x3d628a4a	0.055307664
114	0xbeb44f68	-0.35216832
115	0x3dc03c08	0.0938645
116	0xbc0f9c6c	-0.008765321
117	0xbd711961	-0.058862094
118	0x3de35d12	0.11101736
119	0x3e378ec2	0.17925552
120	0x3d019539	0.03163645
121	0xbd7c6e82	-0.061628826
122	0xbc994724	-0.01871068
123	0xbd98215b	-0.07428237
124	0xbd401ac8	-0.04690054
125	0xbdaa01aa	-0.08301099
126	0x3cd640ad	0.026153887
127	0xbd75ff0e	-0.060057692
128	0x3c705d8a	0.014670739
129	0x3c0e9741	0.008703054
130	0x3d545fb4	0.051849082
131	0x3dd3e36f	0.10346114
132	0x3c9ea7ca	0.019367117
133	0xbd81056d	-0.06299863
134	0xbc0072be	-0.007839857
135	0xbd5b03b1	-0.053470317
136	0x3dd7658d	0.10517416
137	0xbd9bdb6a	-0.07610209
138	0xbbeccfdb	-0.0072269267
139	0xbbc27167	-0.005933929
140	0xbdb96662	-0.09052731
141	0xbe05615c	-0.13025421
142	0x3e085390	0.13313127
143	0xbcc4214d	-0.02394166
144	0x3cfce130	0.030869097
145	0x3e3ac185	0.18237884
146	0x3e7de7d3	0.24795465
147	0x3adf04ef	0.001701502
148	0x3d5a78ff	0.053338047
149	0x3e10406b	0.14087074
150	0xbcd82eb6	-0.026389461
151	0x3da5e6bc	0.0810065
152	0x3d14c405	0.03631975
153	0x3c15376b	0.009107451
154	0xbe5f8f19	-0.21831931
155	0x3dd5147a	0.10404296
156	0x3cbe10cc	0.023201369
157	0xbe06ec94	-0.13176185
158	0x3dfb0f3e	0.122587666
159	0x3c936c5f	0.017996011
160	0xbe596b04	-0.2123223
161	0x3ddc23d1	0.10749019
162	0xbdc433ad	-0.09580169
163	0xbd2199ea	-0.039453425
164	0x3d065281	0.032793526
165	0xbde95f18	-0.11395091
166	0x3d34ddf1	0.044156972
167	0x3c5473f7	0.012967101
168	0xbc84fafe	-0.016232964
169	0x3dadfab5	0.08495084
170	0x3db0f735	0.08640901
171	0xbbcfc422	-0.0063405195
172	0x3db53164	0.08847311
173	0x3e82bcf7	0.25534794
174	0xbd5b90da	-0.053604938
175	0x3dbdbcbf	0.09264516
176	0x3ddbf289	0.10739619
177	0xbdf6dd21	-0.12053896
178	0x3d26e4fd	0.040745724
179	0x3df0c78d	0.11756811
180	0x3d018ca7	0.031628277
181	0x3d82569d	0.063641764
182	0xbca7ee1e	-0.020499285
183	0x3db44271	0.08801735
184	0x3e0b7b22	0.1362119
185	0xbc163e63	-0.009170148
186	0x3c8aeca5	0.016958544
187	0xbc139c67	-0.009009457
188	0xbdd0b592	-0.10190882
189	0xbe463033	-0.19354324
190	0xbde2be06	-0.110714
191	0xbd6a4985	-0.05719902
192	0xbe458520	-0.19289064
193	0xb98a531f	-0.0002638334
194	0xbd45a377	-0.048251595
195	0xbd93a837	-0.07209819
196	0xbc83ec4c	-0.016103886
197	0xbdafda51	-0.085865624
198	0x3cca084f	0.024662165
199	0xbdcb0009	-0.09912116
200	0xbdbd9c3f	-0.09258317
201	0x3dbe5cbd	0.09295032
202	0xbd1b794d	-0.03795748
203	0xbe322bcd	-0.17399521
204	0xba612c08	-0.000858963
205	0xbd2b75ea	-0.0418605
206	0xbe10b545	-0.14131649
207	0xbdc504cd	-0.09620056
208	0xbd26f8e2	-0.040764697
209	0xbe32a4b5	-0.17445643
210	0xbd863fba	-0.065551236
211	0xbb9356f7	-0.004496451
212	0xbe0bbd1e	-0.13646361
213	0xbdad6c0e	-0.084678754
214	0xbd78bdc4	-0.06072785
215	0xbdf96dba	-0.12179132
216	0xbe95fa8f	-0.29292724
217	0xbd357196	-0.044297777
218	0x3d219243	0.039446127
219	0xbe93f4c3	-0.28897676
220	0xbcd48569	-0.025942521
221	0x3d61ae6b	0.05509798
222	0xbee8421a	-0.4536293
223	0xbe7c5014	-0.24639922
224	0xbd7308ee	-0.059334688
225	0x3dc9d1eb	0.09854492
226	0xbcf53a93	-0.029935157
227	0xbcc5c007	-0.024139417
228	0x3e2ef7be	0.17086694
229	0x3b21a3ce	0.0024664286
230	0xbd12a432	-0.03580112
231	0x3a1488f4	0.00056661596
232	0x3d3a4c4b	0.045482915
233	0xbca34142	-0.019928578
234	0x3cbdf4c1	0.023187997
235	0x3db4771c	0.08811781
236	0x3d4d34d1	0.050099198
237	0x3e047105	0.12933739
238	0x3e27891c	0.16360897
239	0x3e85b225	0.26112476
240	0x3e06ada8	0.13152182
241	0x3e8459da	0.258498
242	0x3e4748d9	0.19461383
243	0xbd9afd1a	-0.075678065
244	0x3e85cc54	0.26132452
245	0xbdcfcd61	-0.10146595
246	0xbe169683	-0.14705853
247	0x3e36bb7d	0.17844959
248	0xbdee23f5	-0.11627952
249	0xbd819597	-0.0632736
250	0x3e206581	0.1566372
251	0xbd7f8493	-0.062382292
252	0x3e1ee44e	0.15516779
253	0xbe79eb5d	-0.2440619
254	0xbe8985a8	-0.26859784
255	0x3e4bad2b	0.19890277

conv2.bias f4 [16]
0	0x3e8cde3f	0.2751331
1	0x3dfa4933	0.12220993
2	0x3e758e77	0.23980127
3	0x3dfab1ff	0.12240981
4	0x3dac166d	0.08402715
5	0x3f003d53	0.50093573
6	0x3f0a368c	0.5398948
7	0x3e676f95	0.22601159
8	0x3f2a3b9b	0.664972
9	0x3ea3b2a6	0.31972235
10	0xbe9b73a1	-0.30361655
11	0xbe9c22eb	-0.3049539
12	0x3e824651	0.25444272
13	0x3eefccf8	0.46836066
14	0x3e899aa7	0.26875803
15	0x3e957750	0.2919259

bn2.weight f4 [16]
0	0x3fac06de	1.3439596
1	0x3fc21fd4	1.5165963
2	0x3fa6e366	1.3038146
3	0x3fbbc471	1.4669324
4	0x3f9b9b60	1.2156792
5	0x3fc49ad1	1.5359746
6	0x3fa70b08	1.3050241
7	0x3fa35bce	1.2762392
8	0x3fc43550	1.532877
9	0x3faf5c0b	1.3699964
10	0x3fd19b72	1.6375563
11	0x3fa8ceca	1.3188107
12	0x3f942a17	1.1575345
13	0x3f996082	1.1982577
14	0x3f9c1c5d	1.2196156
15	0x3fb5e1e8	1.4209566

bn2.bias f4 [16]
0	0x3f3a2964	0.7271941
1	0x3ebc4ff0	0.36779737
2	0xbdd0ad49	-0.101893015
3	0x3dc08737	0.0940079
4	0x3ecb9392	0.39761025
5	0x3e5dc192	0.21655872
6	0xbdc2babe	-0.095082745
7	0x3d7fed51	0.062482182
8	0x3eb5a545	0.35477653
9	0x3e366f1b	0.17815821
10	0x3eacadeb	0.3372644
11	0xbcf8bc1b	-0.030363133
12	0x3f203393	0.62578696
13	0x3f03db5a	0.5150658
14	0x3f051798	0.51989126
15	0x3e7cd5a2	0.2469087

bn2.running_mean f4 [16]
0	0xbf305102	-0.6887361
1	0x3f2274b5	0.6345933
2	0xc0115a25	-2.271127
3	0xbfd2c06c	-1.6464972
4	0x3fee9fae	1.864248
5	0x3f8381c0	1.0273972
6	0xbfbca2de	-1.4737203
7	0xbfd3ede4	-1.6556973
8	0x40035948	2.0523243
9	0x4021a757	2.5258386
10	0xbe83dd88	-0.25754952
11	0x3e57e093	0.21081762
12	0x3f27e06b	0.6557681
13	0x3f6c9969	0.92421585
14	0xbf9f49ca	-1.2444394
15	0x3f950460	1.164196

bn2.running_var f4 [16]
0	0x40391bd5	2.8923237
1	0x401ffde5	2.4998715
2	0x402a788a	2.6636071
3	0x40189274	2.3839388
4	0x408a1882	4.3154917
5	0x3fa5e9b5	1.2961947
6	0x405eac13	3.4792526
7	0x401ac7b3	2.4184387
8	0x40105812	2.2553754
9	0x40970d8e	4.7204046
10	0x3f2e8da7	0.68184894
11	0x3f558708	0.83409166
12	0x40e9dc9f	7.3081813
13	0x4068a0e3	3.6348197
14	0x3fb85be7	1.4403046
15	0x4013ad25	2.307443

conv3.weight f4 [1, 16, 3, 3]
0	0xbd375c29	-0.044765625
1	0xbed53eca	-0.41649467
2	0xbe765ac2	-0.24058059
3	0xbd9f026c	-0.07764134
4	0xbf22965d	-0.63510686
5	0xbea551af	-0.32288882
6	0x38899c8e	6.56183e-05
7	0xbed689fd	-0.41902152
8	0xbde878e1	-0.11351181
9	0xbec2b951	-0.3803201
10	0xbe0d7ef0	-0.13817954
11	0xbe7e2975	-0.24820502
12	0xbef87b63	-0.48531637
13	0xbe190935	-0.14944918
14	0xbeac51df	-0.33656213
15	0xbec188f2	-0.37799793
16	0xbe14cdb0	-0.14531589
17	0xbe2166ed	-0.1576192
18	0x3bcab248	0.0061858036
19	0xbbd5a651	-0.0065200706
20	0xbe3a57cb	-0.18197553
21	0xbec62a46	-0.38704127
22	0xbe7a30e8	-0.24432719
23	0xbe652717	-0.22378193
24	0xbe32db73	-0.17466526
25	0xbdc7d4aa	-0.09757359
26	0xbe62c101	-0.22143938
27	0xbea6c1c5	-0.3256971
28	0xbe831ab3	-0.25606307
29	0xbdba8123	-0.09106662
30	0xbea1405c	-0.31494415
31	0xbe5deeb9	-0.21673097
32	0x3c34e492	0.0110408235
33	0xbe0f4918	-0.13992727
34	0x3d560a27	0.052255776
35	0x3da22a6b	0.07918247
36	0xbd20854f	-0.039189633
37	0x3b99fc1d	0.0046992437
38	0xbe19c804	-0.15017706
39	0xbe3e1ea5	-0.18566377
40	0x3ca9fd51	0.020750673
41	0xbdb238ae	-0.08702217
42	0xbea2a25b	-0.31764492
43	0xbe2a498d	-0.1662962
44	0xbebdb20f	-0.3704991
45	0xbce2e0bd	-0.027695054
46	0xbce3fae5	-0.027829597
47	0xbeaeb5e9	-0.3412316
48	0xbf0bd87f	-0.5462722
49	0xbebe8266	-0.3720886
50	0xbf050a50	-0.5196886
51	0x3dafa472	0.08576287
52	0x3bb6f111	0.0055829366
53	0xbdfc6a71	-0.123249896
54	0xbd228bae	-0.03968399
55	0x3e08f102	0.13373187
56	0xb95456f0	-0.00020250282
57	0xbec5b977	-0.3861806
58	0xbbcb1074	-0.0061970297
59	0x3d8b6a0e	0.06807338
60	0xbede6d80	-0.43442917
61	0x3c52eaee	0.012873394
62	0x3d11967a	0.035543896
63	0xbe159bd1	-0.1461022
64	0xbe14d64b	-0.14534871
65	0xbe63d56c	-0.22249383
66	0xbe927175	-0.28602186
67	0x3d4aecf9	0.0495424
68	0x3cd37525	0.025812695
69	0xbdc48c02	-0.09597017
70	0xbe22e3af	-0.15907167
71	0xbd90c36a	-0.07068522
72	0xbe5c4497	-0.2151054
73	0xbe2a701e	-0.16644332
74	0x3d1a963d	0.037740935
75	0x3eb06c1c	0.3445748
76	0xbf33721a	-0.7009598
77	0xbe677e62	-0.22606805
78	0xbe76df32	-0.2410858
79	0xbe86b008	-0.26306176
80	0xbc9d2b63	-0.019185727
81	0xbe4e8b0d	-0.20170231
82	0xbe16c6fe	-0.14724347
83	0xbeb3e5a5	-0.35136142
84	0xbca07f05	-0.019591818
85	0xbe174235	-0.1477135
86	0xbea60384	-0.32424557
87	0xbe9d98f7	-0.30780765
88	0xbe83f928	-0.2577603
89	0xbf17cc9f	-0.592966
90	0x3db5b61c	0.08872625
91	0x3e4c8675	0.19973166
92	0x3e2c6320	0.16834688
93	0xbd0bca6c	-0.03412859
94	0x3df80ef9	0.12112231
95	0xbf05762d	-0.52133447
96	0x3cfc3b8f	0.030790119
97	0x3e3c107c	0.18365663
98	0x3e15f07c	0.14642519
99	0x3c6d1ff3	0.014472949
100	0x3aab199c	0.0013053897
101	0x39fa8d18	0.0004778884
102	0xbf008c61	-0.502142
103	0x3eace69a	0.33769685
104	0x3ed40d45	0.41416374
105	0xbd307e12	-0.04308898
106	0x3d04fc4b	0.032467168
107	0x3ca0b537	0.01961766
108	0xbeaee20e	-0.3415684
109	0xbe0fc996	-0.14041743
110	0xbd926b4a	-0.0714937
111	0xbea70cbb	-0.326269
112	0xbecd7577	-0.4012868
113	0xbed5b16a	-0.4173692
114	0xbe3f9db4	-0.18712503
115	0xbd94c7f8	-0.072647035
116	0xbe9590eb	-0.29212126
117	0xbd22c753	-0.03974087
118	0xbe09a7f5	-0.13442977
119	0xbe25d5dc	-0.16194862
120	0xbd493df5	-0.049131352
121	0xbdaf2b90	-0.08553231
122	0xbe3f54cc	-0.18684691
123	0xbda788a7	-0.08180361
124	0xbe816ebc	-0.25279796
125	0xbea39866	-0.31952208
126	0xbe28edf6	-0.16497025
127	0xbe48cdb1	-0.19609715
128	0x3d9b08c5	0.07570032
129	0xbea203c6	-0.31643504
130	0xbe6633f5	-0.22480758
131	0xbd456108	-0.04818824
132	0xbd7160e2	-0.058930285
133	0xbe793ab2	-0.24338797
134	0xbd897011	-0.06710828
135	0xbdec98a4	-0.115525514
136	0xbe3a8662	-0.18215325
137	0xbebfd3b9	-0.3746622
138	0xbeb7e33e	-0.3591556
139	0x3e10c8b8	0.14139068
140	0xbeb83bce	-0.35983127
141	0xbe4eebdd	-0.20207162
142	0xbc909dd5	-0.017653385
143	0xbe91c58f	-0.28471038
